…
+-----------------+----------------------+
|  LR Milestones  |        [550]         |
+-----------------+----------------------+
|   Real Layers   |          8           |
+-----------------+----------------------+
|  Total Layers   |          32          |
+-----------------+----------------------+
|     Filters     |          48          |
+-----------------+----------------------+
|    BatchNorm    |        False         |
+-----------------+----------------------+
==> Preparing data..
Files already downloaded and verified
Files already downloaded and verified
Recursive ConvNet
Conv_K_Recusive_Net(
  (act): ReLU()
  (V): Conv2d(3, 48, kernel_size=(8, 8), stride=(1, 1), padding=(3, 3))
  (P): MaxPool2d(kernel_size=4, stride=4, padding=2, dilation=1, ceil_mode=False)
  (Wk): ModuleList(
    (0): Conv2d(48, 48, kernel_size=(3, 3), stride=(1, 1), padding=(1, 1))
    (1): Conv2d(48, 48, kernel_size=(3, 3), stride=(1, 1), padding=(1, 1))
    (2): Conv2d(48, 48, kernel_size=(3, 3), stride=(1, 1), padding=(1, 1))
    (3): Conv2d(48, 48, kernel_size=(3, 3), stride=(1, 1), padding=(1, 1))
    (4): Conv2d(48, 48, kernel_size=(3, 3), stride=(1, 1), padding=(1, 1))
    (5): Conv2d(48, 48, kernel_size=(3, 3), stride=(1, 1), padding=(1, 1))
    (6): Conv2d(48, 48, kernel_size=(3, 3), stride=(1, 1), padding=(1, 1))
    (7): Conv2d(48, 48, kernel_size=(3, 3), stride=(1, 1), padding=(1, 1))
  )
  (C): Linear(in_features=3072, out_features=10, bias=True)
)

Layer Block:  [4, 4, 4, 4, 4, 4, 4, 4]


		Parameters: 0.206266M
Current set up
Testing  False
[ALERT]: Path to results (this may overwrite ../results/dicts/ensemble_recursives/Ensemble_K_Recursive_L_8_M_32_BN_48_K_False.pkl
[ALERT]: Path to checkpoint (this may overwrite ./checkpoint/Ensemble_K_Recursive_Lo_8_Lr_32_M_48_BN_False_K_12.t7
Do you want to continue? [Y/n]: [OK]: Starting Training of Recursive Ensemble Model
…
