…
|  Learning Rate  |       0.01        |
+-----------------+-------------------+
|  LR Milestones  |       [550]       |
+-----------------+-------------------+
|   Real Layers   |        13         |
+-----------------+-------------------+
|  Total Layers   |        32         |
+-----------------+-------------------+
|     Filters     |        32         |
+-----------------+-------------------+
|    BatchNorm    |       False       |
+-----------------+-------------------+
==> Preparing data..
Files already downloaded and verified
Files already downloaded and verified
Recursive ConvNet
Conv_K_Recusive_Net(
  (act): ReLU()
  (V): Conv2d(3, 32, kernel_size=(8, 8), stride=(1, 1), padding=(3, 3))
  (P): MaxPool2d(kernel_size=4, stride=4, padding=2, dilation=1, ceil_mode=False)
  (Wk): ModuleList(
    (0): Conv2d(32, 32, kernel_size=(3, 3), stride=(1, 1), padding=(1, 1))
    (1): Conv2d(32, 32, kernel_size=(3, 3), stride=(1, 1), padding=(1, 1))
    (2): Conv2d(32, 32, kernel_size=(3, 3), stride=(1, 1), padding=(1, 1))
    (3): Conv2d(32, 32, kernel_size=(3, 3), stride=(1, 1), padding=(1, 1))
    (4): Conv2d(32, 32, kernel_size=(3, 3), stride=(1, 1), padding=(1, 1))
    (5): Conv2d(32, 32, kernel_size=(3, 3), stride=(1, 1), padding=(1, 1))
    (6): Conv2d(32, 32, kernel_size=(3, 3), stride=(1, 1), padding=(1, 1))
    (7): Conv2d(32, 32, kernel_size=(3, 3), stride=(1, 1), padding=(1, 1))
    (8): Conv2d(32, 32, kernel_size=(3, 3), stride=(1, 1), padding=(1, 1))
    (9): Conv2d(32, 32, kernel_size=(3, 3), stride=(1, 1), padding=(1, 1))
    (10): Conv2d(32, 32, kernel_size=(3, 3), stride=(1, 1), padding=(1, 1))
    (11): Conv2d(32, 32, kernel_size=(3, 3), stride=(1, 1), padding=(1, 1))
    (12): Conv2d(32, 32, kernel_size=(3, 3), stride=(1, 1), padding=(1, 1))
  )
  (C): Linear(in_features=2048, out_features=10, bias=True)
)

Layer Block:  [2, 2, 2, 2, 2, 2, 2, 2, 2, 2, 2, 2, 8]


		Parameters: 0.14689M
Current set up
Testing  False
[ALERT]: Path to results (this may overwrite ../results/dicts/ensemble_recursives/Ensemble_K_Recursive_L_13_M_32_BN_32_K_False.pkl
[ALERT]: Path to checkpoint (this may overwrite ./checkpoint/Ensemble_K_Recursive_Lo_13_Lr_32_M_32_BN_False_K_8.t7
…
