…
+-----------------+----------------------+
|  Learning Rate  |         0.01         |
+-----------------+----------------------+
|  LR Milestones  |        [550]         |
+-----------------+----------------------+
|     Layers      |          8           |
+-----------------+----------------------+
|     Filters     |          40          |
+-----------------+----------------------+
|    BatchNorm    |        False         |
+-----------------+----------------------+
==> Preparing data..
Files already downloaded and verified
Files already downloaded and verified
Non Recursive ConvNet
Conv_Net(
  (act): ReLU()
  (V): Conv2d(3, 40, kernel_size=(8, 8), stride=(1, 1), padding=(3, 3))
  (P): MaxPool2d(kernel_size=4, stride=4, padding=2, dilation=1, ceil_mode=False)
  (W): ModuleList(
    (0): Conv2d(40, 40, kernel_size=(3, 3), stride=(1, 1), padding=(1, 1))
    (1): Conv2d(40, 40, kernel_size=(3, 3), stride=(1, 1), padding=(1, 1))
    (2): Conv2d(40, 40, kernel_size=(3, 3), stride=(1, 1), padding=(1, 1))
    (3): Conv2d(40, 40, kernel_size=(3, 3), stride=(1, 1), padding=(1, 1))
    (4): Conv2d(40, 40, kernel_size=(3, 3), stride=(1, 1), padding=(1, 1))
    (5): Conv2d(40, 40, kernel_size=(3, 3), stride=(1, 1), padding=(1, 1))
    (6): Conv2d(40, 40, kernel_size=(3, 3), stride=(1, 1), padding=(1, 1))
    (7): Conv2d(40, 40, kernel_size=(3, 3), stride=(1, 1), padding=(1, 1))
  )
  (C): Linear(in_features=2560, out_features=10, bias=True)
)


		Parameters: 0.14885M
Current set up
Testing  False
[ALERT]: Path to results (this may overwrite ../results/dicts/ensemble_non_recursives/Ensemble_Non_Recursive_L_8_M_40_BN_False_K_8.pkl
[ALERT]: Path to checkpoint (this may overwrite ./checkpoint/Ensemble_Non_Recursive_L_8_M_40_BN_False_K_8.t7
Do you want to continue? [Y/n]: [OK]: Starting Training of Recursive Ensemble Model
…
